app/src/main/assets/model_100_6.tflite (tflite, 23728 bytes, 5 tensors)

sequential_115/dense_400/BiasAdd/ReadVariableOp f4 [32]
00000000: 6099 60bd cbf8 5fbc 4eb3 de3c 5a75 bd3d
00000010: b9b9 a83b 11a9 763d 6a60 543d 1460 6b3d
00000020: 3e3b c6bc 4ea2 b7bc b3f7 5cbd bff7 753d
00000030: 6a1a 63bd 60b7 1b3d 1837 6b3d 85cd 7cbc
00000040: 4828 c43d bed2 6e3d e404 f0bc d862 09bd
00000050: ab63 2fbc e5d3 003c a544 013d af55 41bd
00000060: 0ca9 87bc bb22 52bd f276 393d 7b61 d1bc
00000070: 9857 de3d 006e 59bc f68e b23d 791a 52bd
-0.05483377 -0.013670157 0.027185109 0.09250899 0.005149093 0.060219828 0.05184976 0.057464674
-0.02419817 -0.02241626 -0.053947162 0.060050722 -0.055445112 0.038016677 0.05742559 -0.015429859
0.095779955 0.05830645 -0.029299207 -0.03354153 -0.010704915 0.00786302 0.031559605 -0.047200855
-0.0165601 -0.051302653 0.04527945 -0.025559178 0.10856551 -0.013270855 0.08718674 -0.051294778

sequential_115/dense_399/BiasAdd/ReadVariableOp f4 [100]
00000000: bbd7 96bd bb26 efbc eb15 803d 1a5d a03d
00000010: 08ae d73c c80e 393b 895e 9ebc 262e 923d
00000020: faf9 f9bc de76 84bc 226e 40bd 2867 743c
00000030: 4d96 b13a 7dae a7bd 0923 0e3d e8fc 053d
00000040: 37c8 a43d 3421 c13c 819b 963c 84f0 5ebd
00000050: 0284 4fbd 2a1c 283d cfcc 2a3d 3eda 4dbd
00000060: 74b6 8fbc 93ae 343c 5670 de3c ee5f aebd
00000070: 2d98 0bbc 62af 26bd 3624 063e 69ff 853c
00000080: 254e 29bd 7ba4 0a3d 6d10 b23d a648 b8bb
00000090: 03db e03b dfed 7d3d 81d5 a53c 7f3b 28bc
000000a0: 3f4e 0bbd 0cef 08bd 4343 9c3d b429 febc
000000b0: 85d0 77bd d71e aebc 3120 cbbb 875d 2e3e
000000c0: 3c3a 243e 7061 0d3d f0cf 7c3d 53be 36bc
000000d0: 3776 b53c b343 183d c952 65bc c70e 36bc
000000e0: 2c83 47bc 5f31 0b3e 644d 923d e74e 3e3e
000000f0: 9693 9dbd 924d 0c3e 13ef 97bd 09c9 143c
00000100: df09 3b3d fc6c 643d af43 d03c b2ec dc3c
00000110: 5f0e 0a3d 837f 993d 892d 073d 1f47 86bc
00000120: b184 893d f4cc e33c 2909 06bc f3e5 a5bc
00000130: 3dd5 333d 78fe 13bc 25d7 acbc 35a7 d23d
00000140: ddac 5bbd 8760 143d 9f35 70bd b3fa 863d
00000150: 7076 163d 724a bfbc f608 3abc 7bd4 8ebd
00000160: 49bb 313d 0063 41bd d58b b9bc 4112 4dbd
00000170: d5e7 1dbd 6c4c 343d 7832 9d3d de57 633d
00000180: 5e65 a8bc 8f46 5c3d 1c68 ecba 3406 513d
-0.07365366 -0.029193273 0.062541805 0.07830258 0.026328102 0.002823757 -0.019332187 0.07137708
-0.030514706 -0.016169962 -0.04698003 0.0149171725 0.0013548821 -0.08187578 0.03470138 0.032711893
0.080460005 0.023575403 0.018384697 -0.054428592 -0.050663 0.041042484 0.041699227 -0.05025696
-0.017543055 0.01102795 0.027153175 -0.08514391 -0.008520168 -0.0406946 0.13099751 0.01635714
-0.04133429 0.033848267 0.08694539 -0.0056238947 0.0068620457 0.06199443 0.020243408 -0.010268091
-0.03401017 -0.033431098 0.07630017 -0.031025745 -0.060501594 -0.02125494 -0.006198906 0.17027865
0.1603784 0.03451675 0.061721742 -0.011153775 0.022151096 0.037173938 -0.013996788 -0.011111922
-0.01217727 0.13593052 0.07143667 0.18584786 -0.076941654 0.13701466 -0.07418647 0.009081134
0.04566371 0.055767998 0.025422899 0.026968334 0.03370511 0.07495024 0.03300241 -0.016391335
0.06714762 0.02780769 -0.008180895 -0.02025125 0.04390453 -0.009032838 -0.021098683 0.102857985
-0.053631652 0.03622487 -0.058644887 0.06590786 0.036734045 -0.023350928 -0.0113546755 -0.06974121
0.0433915 -0.047213554 -0.022649685 -0.050066236 -0.03855117 0.044018194 0.07675642 0.05550372
-0.020556148 0.053778227 -0.0018036398 0.051031306

sequential_115/dense_399/Tensordot/MatMul1 f4 [100, 6]
00000000: 788d 453e dc84 8f3c f9aa 883e 5eba b2ba
00000010: 9499 c5bd 911d 5c3e fc44 9a3e 822e d33d
00000020: a522 c13d e85d 4f3e 5f8f 6a3b 738b 383d
00000030: b98a 8cbd cb87 7cbe d510 19bd a4e7 72be
00000040: 1b66 72bc 03e5 1a3e e402 a7be 1347 383e
00000050: e9c6 023e 91bc e6bd 0e23 4b3e 4f27 283e
00000060: f910 9c3e 5776 93be a254 5dbe 04c4 483e
00000070: 5ea0 393e a4f1 d13d 37bf 8b3e 05c2 0e3f
00000080: 86f5 623d c875 2b3d f586 843e c422 0abd
00000090: 0cf1 0c3d af76 16bc 7abf 3e3e 9115 1cbe
000000a0: b9c9 da3c e337 f3bd fdb3 c6be 44da acbe
000000b0: aac7 a1bd efed 823e e448 d0bd 5aee ffbd
000000c0: 003a 45be 823d 18be ba23 233e 648e 323e
000000d0: 2ab5 e33c 91bc 443d 723a 06be d1ba 95bd
000000e0: 8f58 603e 26a7 60bd 2fa5 36bc f8a2 663e
000000f0: 8352 49be 4296 d93c 8816 413e 1fc9 593e
00000100: f8e5 803d c11c 413d 6513 6b3e cfd8 2e3e
00000110: 18a9 7bbe ef4d 67be 174d bbbc 2547 1bbe
00000120: 1b31 653d c0f7 a43d 6aac 1c3e d170 35be
00000130: 5698 cbbd 2b2e 163e 8efd 213e 921f 163f
00000140: 643f 2dbd 426a eebd edf9 5b3e 7adb 6ebd
00000150: 1246 2b3e 4e95 0abd a8aa 803e b4ab bd3c
00000160: 0dbd 0dbe 4d83 be3d 4acd c1be 33b0 683d
00000170: 1e76 15be 9fec bdbd 2e14 2c3e 31c7 54be
00000180: 63fc 063e ab91 363d 6ac5 71be f039 81be
00000190: 1391 a5bd 331e a33d a8a7 fa3d 847f 633d
000001a0: 60ef 20be bd6a 183d 8c70 3c3d 21c6 61be
000001b0: 9277 d93e 621e 19be 97b3 eabe a794 b8bb
000001c0: 3c27 0ebe 1172 943d 92a8 513d a5d2 4a3e
000001d0: 6906 7f3e ceec 59be ed34 283e 5787 043e
000001e0: 2e6f 4a3e 7a4f f4bd 36c8 643d 4589 f13c
000001f0: f52c f63d 800d b13d c915 26be 0156 f13d
00000200: e559 7b3e bb88 7bbe 29c3 993d 712f 05be
00000210: 9da1 5e3e 9ee9 15be e7ee 97be 9bca 553c
00000220: 2245 40be 54df 4d3e a605 0c3d 8231 c93d
00000230: 4e62 2a3e cb10 6c3e f740 2abe b9a5 7b3d
00000240: 1e89 033e a3d2 3f3e 9bb4 32be f65f 3dbe
00000250: b333 c2bd 3edb 3fbe fc09 cb3d 9fed fabe
00000260: d357 553c 84fb e73c 0316 123c 3fb8 6bbb
00000270: 0e8a 973d 7fc7 5abe 0900 353e 6a79 0ebe
00000280: 63f6 31bc 37b6 1dbe 57d9 9f3c 1f82 1c3e
00000290: 553a b2be 380b df3d 9244 77be baad 413e
000002a0: e36c 973e cf87 29bd 89ea 14be aa96 1b3e
000002b0: a969 59bd b63a fe3c 72a7 59be 796c e8bd
000002c0: da4c 8f3e 3589 bf3d 4b2e 6b3e 9e68 5b3e
000002d0: 7849 95bd 4e64 0cbe 5c2f e13e b1a6 05be
000002e0: 886b 823c 3701 4e39 d6bf 1bbe 18b3 803e
000002f0: 2517 01be a5ed 30bd f94b 0e3e 8288 45be
00000300: 9efb 5d3e 0c29 763c e3e7 803e 0a6c 263d
00000310: 3308 933d a1ee 223d 0e96 16be 08db f2ba
00000320: 293a e0bd e629 3d3e a109 07be fd2c b8bd
00000330: c54b 9d3e 20c1 cbbd eea3 f3be a611 cabc
00000340: 99ab 26be ce7a e33c c08a 0f3e a613 3ebd
00000350: 8cc8 17bd f77e 4b3e c3f9 21be 3f4d 86be
00000360: 7b39 e03d 453e d1bb 512c dbbd a492 0cbe
00000370: 957e 1b3e c4ce 053e a136 443d 80c1 38be
00000380: 5e8b bc3d 9e18 093d 3d91 5c3d ac7f fd3c
00000390: cce4 42be 097b a7be f541 43be e75d 45be
000003a0: ec90 43be 4fd2 dcbd 65c4 133d 2a32 08be
000003b0: 2254 bb3e 12be 0bbe 23e0 fc3d 3658 c53d
000003c0: e2f9 6c3e ccf2 09bd 963f 733e 3e42 f9bd
000003d0: fdf5 81bd 3882 433e 4bbf 04be 3f64 f03c
000003e0: 4082 6abd 3347 4a3e aae4 cd3d 9f6b 333e
000003f0: dd32 2a3c d914 95be 2886 543d f0bf 3e3e
0.19292247 0.017519407 0.26692942 -0.0013635864 -0.09648433 0.21495654 0.30130756 0.10311605
0.09430436 0.20250666 0.0035791022 0.045054864 -0.06862397 -0.24661176 -0.037369568 -0.23721176
-0.014794852 0.15126424 -0.32619393 0.17995863 0.1277119 -0.11266435 0.19837591 0.16421245
0.304817 -0.28801224 -0.21614316 0.19606024 0.18127581 0.102511674 0.27294323 0.557648
0.05540993 0.04186037 0.25884214 -0.03372456 0.034409568 -0.00918357 0.1862773 -0.15242602
0.026707517 -0.11875894 -0.38809195 -0.33760273 -0.07899411 0.25572154 -0.10170153 -0.12496634
-0.19260406 -0.14867213 0.15931597 0.1743713 0.027796347 0.048031393 -0.13108233 -0.07311023
0.21908782 -0.054846905 -0.011147781 0.22523105 -0.19660382 0.026560906 0.18856251 0.21268128
0.06293863 0.047146562 0.22956617 0.17074893 -0.24576223 -0.22588323 -0.022863908 -0.15163858
0.055955034 0.08055067 0.15300146 -0.17718817 -0.09941165 0.14666049 0.1581938 0.5864192
-0.042296782 -0.11641361 0.21482058 -0.058314778 0.16725948 -0.033833794 0.251302 0.023153163
-0.13841648 0.093023874 -0.37851936 0.05680866 -0.1459584 -0.092736475 0.16804573 -0.2077911
0.13182215 0.044572514 -0.23610464 -0.25239515 -0.08084311 0.079647444 0.12239009 0.05554153
-0.15716314 0.03721117 0.04600577 -0.22048236 0.42474037 -0.14952996 -0.4584014 -0.005632955
-0.13882154 0.07248319 0.05118615 0.19806917 0.24904789 -0.2128174 0.1642644 0.12942253
0.19768974 -0.119292215 0.055855 0.0294844 0.120202936 0.08645153 -0.16219248 0.11783982
0.24546011 -0.24563877 0.07507927 -0.13006379 0.21741338 -0.14639899 -0.29674456 0.013048793
-0.18776372 0.20104724 0.034185074 0.09823896 0.16639063 0.23053281 -0.16626345 0.061437342
0.12845275 0.18732695 -0.17451708 -0.18493637 -0.09482517 -0.18735978 0.09914014 -0.49009416
0.013021427 0.028318174 0.008916381 -0.0035967974 0.07399379 -0.21365164 0.17675795 -0.13913503
-0.010861966 -0.1540154 0.019512815 0.15284012 -0.3481013 0.10890812 -0.24147251 0.18913928
0.2957526 -0.041389283 -0.14542593 0.15194193 -0.05307928 0.031033855 -0.21255282 -0.113488145
0.2798832 0.09352342 0.22966878 0.21426627 -0.07289404 -0.13710138 0.43981445 -0.13051869
0.015920416 0.00019646143 -0.15209898 0.25136638 -0.12606485 -0.043195385 0.13896169 -0.19290355
0.21678016 0.015024435 0.25176916 0.040630378 0.07179298 0.039778356 -0.14705679 -0.0018528411
-0.10948593 0.18473014 -0.13187267 -0.08992956 0.3072187 -0.09948945 -0.47586006 -0.024666619
-0.16276397 0.027768519 0.14017773 -0.046405457 -0.03705649 0.19872652 -0.15817933 -0.2623081
0.109484635 -0.006385597 -0.10701812 -0.13727814 0.15185006 0.13067156 0.04790366 -0.18042564
0.0920627 0.033470742 0.053849448 0.030944668 -0.19032592 -0.32711056 -0.1906813 -0.19274102
-0.19098252 -0.10782301 0.03607597 -0.13300386 0.36587626 -0.13646725 0.12347438 0.096359655
0.23142198 -0.033678815 0.23754725 -0.12170838 -0.06345747 0.19092643 -0.12963597 0.029344676
-0.057253122 0.19753723 0.1005338 0.17521523 0.010388103 -0.29117468 0.051885754 0.18627906

sequential_115/dense_400/Tensordot/MatMul f4 [32, 100]
00000000: e22f 27bd 1c02 e63d 6075 86bd f903 193c
00000010: 5ba4 39be af3f 803e a65c c23d 312b 1dbe
00000020: ef0a 3a3e 1d10 e93c d25a 99bd 2d0b 363d
00000030: 26d1 e33d 9ff9 923d 28d0 363e c22e 8dbd
00000040: aa3a 0fbd 09e1 b03c eaad 013e d04c 133c
00000050: 6ad0 ccbd 95d9 36bd 10a1 12be e516 d13b
00000060: 08d7 0c3e 57eb 9e3e 2e10 853d 2092 da3d
00000070: 6e5a 3ebe 3a6a 0e3d d1fe cdbd 8269 31be
00000080: 4cc7 9c3c d145 d63d d7a2 49be 2101 1ebd
00000090: caab e73d 387d dcbc 80ac de3c ebeb 4ebc
000000a0: 9dc6 aabb bd7e c73d 243d 8ebd 43e7 c13d
000000b0: e27a 2abe 9b45 2c3d 6cfd 17be d8aa 8fbe
000000c0: e419 27be 21c4 673d 5244 aabe a2ed e63c
000000d0: d0c8 dc3d ffda bf3d b54a be3c 427d b8bc
000000e0: ccbb 213e 1afd 90bd 5870 3bbe c047 11be
000000f0: 8bde 113e e459 06be f6cf a43c 2fc6 353e
00000100: 4b41 09be 673e b53e 795d 93bd 1723 b0bd
00000110: f7ae 08bd 127a ae3c 33d5 51be b6ad cebc
00000120: 7ec7 37be 87e2 d43d 582b 113e e588 89bd
00000130: c934 c93d 2d9b 89bd 2356 703d a1c9 f83d
00000140: 9a0d 653e 372e 8a3d bfd7 9c3d 01e7 7d3b
00000150: 6569 173e 2452 35bd 4b43 1cbd 0053 153e
00000160: 70f1 583e 066b 003e 046d b23d 3584 91bc
00000170: 1983 ec3b 9eb7 cc3d 125d 273e d5e8 fd3d
00000180: 9617 42bd b25c f0bd 4a27 4c3e 2f34 24be
00000190: f0e2 2abe 1b56 903c 2a12 083e 4814 48be
000001a0: bbc1 10be 05df 3f3e 1211 c8bc f874 8dbe
000001b0: d11a 23be 2d28 bd3a 9feb 0f3d 0006 ffbd
000001c0: cbf9 153d 4a13 de3c 9ced 073c d818 693d
000001d0: 26cf 11be a962 2dbe 6a57 e5bd e0ff 61bb
000001e0: 0e75 39bd eeaf 29be 47c0 b7bd 712a d23c
000001f0: 6607 05be 3a54 adbc 267d 06be f93c 053e
00000200: 9ba3 1ebe 8a05 c9bd f56a 3e3e d2e3 04be
00000210: ea69 1dbd d931 5bbe 44c1 32be 4372 153c
00000220: fbf8 54bc b1bc 2bbb 3268 1dbe 28c1 d63d
00000230: 3275 ed3d 30b4 f4bd d971 32be 8a62 243d
00000240: 3ef7 82bd 1eea f13d a0c9 61be 74b7 1bbd
00000250: 6444 bebd 0417 3abe 1612 d33d 08e5 563e
00000260: 8bcf 8c3d b967 b5bd d740 d93d 2dd5 23ba
00000270: 1ade 993d d830 d53d a900 923d 9d3b 56be
00000280: aebe acbd 795d dfbc ff12 c33d 9402 453e
00000290: 00b4 99bb 3430 8f3d 7e49 92be 3c87 1bbe
000002a0: ace8 203e 1cf8 5a3d 7b97 9abb 9e3c 433e
000002b0: 9736 38be 26bd c13d d112 06be 2d83 10be
000002c0: 2728 f9bb da95 083e 195d f1ba b176 b83c
000002d0: 80f0 323e 174a f2bd 1671 25bd 9a4d 2dbb
000002e0: 9829 bd3d 974d e0bd ed32 ff3d c610 0bbe
000002f0: fe3b 50bd d4f0 963d ce5e cd3d a95f 10be
00000300: 04d5 0bbd 54f1 21be 7532 2fbe 1434 3d3e
00000310: bc3b 3a3c c6ef 403d 310c 23be 23b8 083e
00000320: 32de 983d 31bd 17be e53d abbd dd9a e9bc
00000330: 8062 59bd 7a78 23bd f6e2 39be 597e f8bd
00000340: c042 17be 4542 643d 5ee4 aabe 96db 013e
00000350: cc89 d3bd 0afd 1a3e 60d2 363e 693d febd
00000360: 7af2 2f3d 2228 04bd 9719 5c3d d3b7 703e
00000370: 7c2a 0d3e 181e 74bd ab7e 1a3e eaf5 583c
00000380: f1b4 fb3d 6c9a c2be 1020 f23c 6dbf 64bd
00000390: 2f8c e9bd 8d4c b2bd eef6 f6bd b779 0dbe
000003a0: 7906 6c3e 1957 91bc 2245 d5bd 99d3 cabc
000003b0: 63d5 2dbe d4f9 30be e56e 163d b6f4 2ebe
000003c0: 85c2 d0bd a1da 30be fb16 44be 71df 883d
000003d0: a0cd e43d 59fe c1bd f744 4d3e 2ee4 3cbe
000003e0: 9722 e7bd 6db0 2cbd 2a49 4b3e ecd6 a0bd
000003f0: 837f 0a3e 2ef8 633d c32b 1bbe 10e4 a53e
-0.04081715 0.11230871 -0.06565356 0.009339326 -0.18129103 0.25048587 0.094903275 -0.15348507
0.18168233 0.028450066 -0.07488026 0.04444425 0.11123876 0.07176518 0.17852843 -0.06893684
-0.034968056 0.02159168 0.12663999 0.0089904815 -0.10000689 -0.044641096 -0.14319253 0.006380903
0.13753903 0.31038925 0.06497227 0.106724024 -0.18589184 0.034769274 -0.10058368 -0.17325404
0.019138 0.10462535 -0.19691025 -0.038575295 0.11312063 -0.026915178 0.027181864 -0.012629489
-0.005211665 0.0974097 -0.069452554 0.09467938 -0.16648439 0.04205857 -0.14842767 -0.2806003
-0.1631847 0.056583527 -0.3325525 0.028189484 0.107804894 0.09367942 0.023228982 -0.022520665
0.15794295 -0.07079525 -0.18304574 -0.14187527 0.1424505 -0.13120228 0.020118695 0.17751382
-0.13403814 0.35399172 -0.07195563 -0.08600443 -0.033369984 0.021298442 -0.20491485 -0.025229316
-0.17947194 0.10394769 0.1417669 -0.06715564 0.09824521 -0.067190506 0.058675896 0.12147833
0.2236847 0.06747096 0.07658338 0.0038742425 0.14786299 -0.04426779 -0.038150113 0.14582443
0.21185851 0.12540826 0.08712199 -0.017763237 0.0072177765 0.0999596 0.16344097 0.12397925
-0.047385775 -0.1173643 0.19936863 -0.16035531 -0.16688132 0.017619183 0.13288179 -0.19538987
-0.14136402 0.18737419 -0.024422202 -0.27628303 -0.15928198 0.0014431529 0.035136815 -0.12452316
0.036615174 0.027108807 0.008296397 0.05690846 -0.14239177 -0.16932167 -0.111983135 -0.0034484789
-0.045277648 -0.16571018 -0.08972221 0.025655003 -0.12991104 -0.021158326 -0.13133678 0.1301154
-0.15492098 -0.098155096 0.18595488 -0.12977532 -0.038431086 -0.21405734 -0.17456537 0.00912148
-0.012998815 -0.0026204998 -0.15371779 0.104860604 0.11594619 -0.119484305 -0.17426242 0.040133037
-0.06394814 0.118122324 -0.2204957 -0.03801675 -0.09290388 -0.18172842 0.10306184 0.20985806
0.06875523 -0.08857674 0.1060807 -0.0006249722 0.07513066 0.10409707 0.07129032 -0.20921178
-0.08434807 -0.02726625 0.095251076 0.19239265 -0.004690647 0.06991616 -0.28571695 -0.15188307
0.15713757 0.05345927 -0.004717765 0.19066092 -0.17989574 0.09459905 -0.13093115 -0.1411254
-0.0076036635 0.13338414 -0.0018414586 0.022517534 0.17474556 -0.11830538 -0.04039105 -0.002644396
0.09236449 -0.10952299 0.12460885 -0.13580617 -0.050838463 0.07370153 0.10027848 -0.14098991
-0.034138694 -0.15814716 -0.17109092 0.18476897 0.011366781 0.047103666 -0.1592262 0.13351493
0.074642554 -0.14818265 -0.08361415 -0.028516227 -0.053072453 -0.039909817 -0.18152985 -0.12133474
-0.14771557 0.055727262 -0.33377355 0.12681422 -0.10329017 0.15135589 0.17853689 -0.12414057
0.042955853 -0.032264836 0.053735342 0.23507623 0.13785738 -0.059599012 0.15087382 0.013242224
0.12290371 -0.3800844 0.029556304 -0.05584662 -0.11403691 -0.08706007 -0.12058817 -0.13815962
0.23049344 -0.017741727 -0.10413577 -0.0247591 -0.16975932 -0.17282802 0.03672685 -0.17085537
-0.10193352 -0.172709 -0.19149391 0.06683243 0.11172032 -0.09472341 0.20045839 -0.18446419
-0.11285894 -0.04216044 0.19852129 -0.07853493 0.13525204 0.055656604 -0.15153413 0.3240056

sequential_115/dense_401/Tensordot/MatMul f4 [1, 32]
00000000: 0d80 d2be 9956 a3be a0c8 abbe d97a cf3e
00000010: 6981 9d3e 7b6a af3e 25c4 f03e c0b7 c43e
00000020: 584b 07be 8bd2 c0be 1eb7 bebe 34a8 853e
00000030: e0d7 8bbe 7edf 193e 05f8 9d3e 4481 b63e
00000040: 6ccd 153f 8d23 cc3d 1f1d cdbe 6245 03bf
00000050: 0f34 253e f6bf b0be c30b a33e 8ae5 d2be
00000060: 0ee6 9c3d d3c7 2abe a38a 443e c885 eabe
00000070: 8dd8 3a3e bcf3 c93e 6bdc c23e abac babe
-0.4111332 -0.31902006 -0.33551502 0.40523413 0.30762795 0.34260926 0.47024646 0.3842144
-0.13212335 -0.37660632 -0.37249082 0.2610489 -0.27313137 0.15026662 0.30853286 0.35645497
0.58516574 0.09967718 -0.4006128 -0.51277745 0.1613314 -0.34521455 0.3184491 -0.4119075
0.07661067 -0.1667779 0.1919351 -0.45805192 0.1824667 0.39443767 0.3805879 -0.3645986
